model/best_model.pth (torch, 122146 bytes, 14 tensors)

layer1.0.weight f4 [16, 1, 5, 5]
000000 36 c4 71 3d c3 aa c0 3d 70 50 13 be c2 bf 39 3e
       0.059025012 0.0940757 -0.14386153 0.18139556
000010 50 bd 1c be 98 bc 06 3e ce 93 b1 3d d1 dd 2d be
       -0.15306592 0.1315788 0.0867077 -0.16979147
000020 fc 75 89 3d 61 f3 8f 3d 81 fb c3 bd 68 52 3b 3e
       0.06711957 0.07028843 -0.09569455 0.18293154
000030 c3 49 c2 bc 81 2b 7d 3e 9b c0 f4 3c d6 b1 6b 3d
       -0.023716813 0.24723627 0.029876998 0.057542644
000040 ca c0 9f bd de c3 af 3d 51 52 af 3d 41 43 05 be
       -0.078004435 0.085822806 0.085606225 -0.13013937
000050 c0 ec 3d be c5 e6 75 3d 0f 68 95 be ce 52 94 be
       -0.18547344 0.060034532 -0.29180953 -0.28969425
000060 17 e1 a4 be b6 36 fd bd 52 94 28 be 13 0b e2 3d
       -0.3220298 -0.12363951 -0.1646283 0.110372685
000070 11 d4 87 3c de 99 88 bd 5b b5 a4 bd 98 fd 3b 3e
       0.016580613 -0.06669973 -0.08042403 0.18358457
000080 62 12 20 be ef 0d 9a 3d aa f2 ff 3d 7e ec 25 3e
       -0.15632012 0.07522189 0.12497456 0.16203496
000090 f8 8c 8b 3e 7a d0 cc bd fd 94 15 be 69 e8 be bb
       0.27255988 -0.10000701 -0.14607616 -0.0058260453
0000a0 1e a7 09 3c d4 e5 37 be 64 23 4a 3c 17 dd 0d 3e
       0.00840166 -0.17958766 0.012337539 0.1385387
0000b0 bb 5d 86 3d b1 93 c2 bd d1 12 ce bd 60 60 19 bd
       0.065608464 -0.09500826 -0.10062183 -0.037445426
0000c0 19 e9 36 be 68 c6 3f bd 5e a2 c1 be 57 a8 26 be
       -0.17862357 -0.046820074 -0.3781919 -0.16275154
0000d0 31 cf fc bd 0a 47 61 3d 7b ed 97 3d 32 45 d5 3d
       -0.12344206 0.05499939 0.07418343 0.104135886
0000e0 db 44 c3 3d f3 c8 00 3e a5 13 23 3e f9 32 82 3c
       0.095346175 0.12576656 0.15925463 0.015893446
0000f0 fb 55 58 3e e3 98 f6 3d 53 97 4a 3e 4b cf 98 3c
       0.21126549 0.120408796 0.19784288 0.018653532
000100 5d d9 ee bd 18 e8 5a 3d 22 73 9f 3c ca 27 28 be
       -0.116625525 0.053443998 0.01946408 -0.16421428
000110 16 93 84 bd 7a 4f 38 3d bf dd 04 be 96 72 59 be
       -0.06473367 0.04499767 -0.12975214 -0.21235117
000120 92 2e 77 bd c9 09 56 3d 32 76 e6 3c 17 d1 dd 3b
       -0.060347147 0.052255426 0.028132532 0.00676931
000130 a8 a2 f2 bd 0a b7 cf 3d ae ef c0 3a f0 9f fa 3d
       -0.118474305 0.10142334 0.0014719868 0.12237537
000140 db 4c 2c 3e 5e 18 2c 3e bb 1a c1 bc e8 92 d0 3d
       0.16826193 0.1680617 -0.023572316 0.1018427
000150 ae 5f a7 3d dd 9b 95 bd c0 d8 00 3e 66 7e ae bc
       0.08172546 -0.07305119 0.12582684 -0.021300506
000160 29 f6 e2 3d 4e 0e 24 be ad a2 9c be 39 79 bc bc
       0.110821076 -0.16021082 -0.30592862 -0.023007022
000170 92 2f a0 3d 60 fc 9a be fb 50 e9 bd c8 8a 10 ba
       0.07821573 -0.30270672 -0.11392399 -0.0005513844
000180 5f e0 32 be 3f e7 8f be 45 71 26 ba 10 28 f2 bc
       -0.17468403 -0.28106114 -0.0006349276 -0.029560119
000190 2e 43 50 3d dd 49 d2 bd c4 76 8b bd 8d 5e a1 bd
       0.050845318 -0.102679946 -0.06809762 -0.07879362
0001a0 32 d3 2b 3e db fc 73 3d 97 bc 50 3e 72 08 1d be
       0.16779783 0.059567314 0.20384441 -0.15335253
0001b0 01 1a 87 be 2e dc 38 be 2d b5 cf bd d3 d2 1c 3e
       -0.26387027 -0.18052742 -0.101419784 0.15314798
0001c0 ef 3d 5e 3e 47 10 aa 3c 51 9c 9f bd e6 e4 ce bd
       0.21703313 0.020759715 -0.07793487 -0.10102253
0001d0 3d 4c c3 3c a3 4d 57 3e 1b a7 62 bc 7b 73 c4 3c
       0.023840064 0.2102571 -0.013833786 0.023980847
0001e0 1c 46 a1 3b 55 c4 44 be 51 2a 84 3d cc 69 29 3d
       0.0049216878 -0.1921552 0.06453384 0.04136066
0001f0 96 1b 71 3d 24 5f 0d 3e dd 3c 3f 3d e6 c3 19 3d
       0.0588642 0.13805825 0.046688903 0.03754034
000200 09 b0 fc bd 5c 96 4b be 48 0d 3a 3e ef 4e c7 bd
       -0.123382635 -0.19881576 0.18169129 -0.09731852
000210 94 35 a7 bd 43 59 00 be e2 27 08 3e b7 41 7c 3d
       -0.08164516 -0.1253405 0.13296464 0.061586108
000220 53 b6 48 bd 2a 20 a2 bd 6c 2c 24 be 6e 7b c8 bd
       -0.049002003 -0.07916291 -0.1603257 -0.09789167
000230 f9 33 3e 3e 2f fa 55 be e9 82 8c 3c cc 67 53 be
       0.18574513 -0.20896219 0.017152267 -0.20645064
000240 ad 0d ae bc 4e c3 56 3d 94 e4 b6 bd e0 0f 46 be
       -0.021246755 0.05243235 -0.089303166 -0.19341993
000250 58 48 4e be cc 1c 58 3e f9 da 5a 3e d0 cd 97 be
       -0.20144784 0.21104735 0.21372594 -0.2964921
000260 9b 9a 54 be e9 98 23 3e eb 8b 20 bd 62 05 c6 3d
       -0.20762102 0.159763 -0.039195936 0.096689954
000270 5d 42 a6 be 36 64 f2 bd 25 1f f5 bc a2 a2 23 3e
       -0.32472506 -0.1183552 -0.029922077 0.15980008
000280 f7 f7 51 be 5b 5c 38 3d 48 7c 51 bd dc 1a dc 3d
       -0.20504747 0.045009952 -0.051143914 0.107473105
000290 73 18 0c 3d 19 36 d0 3d a4 ab e2 bd fa 33 4e be
       0.034203004 0.10166568 -0.11067894 -0.20137015
0002a0 f3 46 94 3d 92 6d 74 3c 61 c5 7f 3d 91 26 52 be
       0.07240095 0.014918702 0.062444095 -0.20522524
0002b0 de 5a b1 bd a7 fd 25 bd c9 c2 52 3e e7 fe 29 be
       -0.0865991 -0.040525105 0.20582117 -0.16601144
0002c0 2e 30 f5 bd 9a e3 06 3e f4 c6 c2 3d b9 d5 41 3d
       -0.1197208 0.1317276 0.095106035 0.047322962
0002d0 cc 5a d1 bd d7 f0 55 3e e5 13 73 3e 54 59 25 be
       -0.10222396 0.20892654 0.23738058 -0.16147357
0002e0 73 8a 36 be b0 b4 3a 3e cb 13 06 bd 5c 08 9d bd
       -0.17826252 0.1823299 -0.03273372 -0.0766761
0002f0 3f 9d a0 be 8a d3 e0 3d 96 2c 0f be 9c 38 ee 3d
       -0.3136997 0.10977848 -0.13981852 0.11631891
000300 76 28 39 be 25 0c a5 3d d4 d5 24 3e 08 31 a4 bd
       -0.18081841 0.08058957 0.16097194 -0.080171645
000310 7e c1 97 3d c4 71 6c 3d 1a 30 f2 3c 61 3f 04 be
       0.074099526 0.057725683 0.029563952 -0.12914802
000320 38 78 11 be 1b 28 d1 bd 7b 88 a0 bd 9a ca 4b be
       -0.14206016 -0.10212728 -0.078385316 -0.19901505
000330 41 09 ae 3c 69 fb 25 3e 56 74 03 be b0 f7 3a be
       0.021244647 0.16209187 -0.12837347 -0.18258548
000340 f1 43 6e be 40 07 40 3e 0e 00 44 3d 36 7e ec 3d
       -0.23268105 0.18752766 0.047851615 0.1154751
000350 4c dc c5 bd 57 5b 90 be 6a 26 cb 3d 6a a1 88 3d
       -0.09661159 -0.28194687 0.09919436 0.06671412
000360 a9 2a 62 3e 26 98 ec bd c5 8c 71 be 41 00 48 3c
       0.22086586 -0.115524575 -0.23588856 0.012207092
000370 4c 0a 01 3e 5d af 25 3d 5a dd ee bd ba f4 8b bd
       0.12601584 0.040450443 -0.11663313 -0.06833787
000380 6a 2c 1d be 74 52 62 be 1f 20 ba 3d 76 44 ee bc
       -0.15348974 -0.22101766 0.09088158 -0.02908538
000390 79 6f 18 3e 35 1d d1 3c 9d 22 44 39 1e ac 15 3e
       0.14886273 0.025526622 0.00018704911 0.14616439
0003a0 e3 91 75 3d 25 49 39 3d 26 a3 f4 bd 0d 10 34 be
       0.05995358 0.04523577 -0.119451806 -0.17584248
0003b0 14 08 82 3e b3 1b c9 bc 65 1f a4 3d eb ae 5b be
       0.25396788 -0.02454934 0.080138005 -0.21453445
0003c0 42 f4 f4 3d dc 6e c0 3d e2 75 07 be 83 9a f9 3c
       0.11960651 0.09396145 -0.13228562 0.030469185
0003d0 be 8f 44 be 80 ae fd 3c ef 12 98 3d 3e a0 2e 3e
       -0.19195458 0.030966997 0.07425486 0.17053315
0003e0 a6 71 4e be 83 5e b4 be d8 c8 d1 3d c8 83 33 3d
       -0.20160541 -0.35228357 0.10243386 0.04382685
0003f0 e4 0f 6a 3e 9d e6 2d 3e 0a 3a 57 3e c6 f3 22 be
       0.22857624 0.16982503 0.21018234 -0.15913305

layer1.0.bias f4 [16]
000000 96 65 40 be f3 f4 b5 bd 53 85 5a 3d 9c e9 52 3d
       -0.18788752 -0.08884611 0.053349804 0.05149232
000010 bc 30 02 be b0 5d 80 be 1f 12 8a bc 79 3d 50 be
       -0.12713903 -0.25071478 -0.016854344 -0.2033595
000020 cf be 24 be 36 f1 99 bd 29 0c f6 3d 97 5d 59 3e
       -0.16088413 -0.075167105 0.12014038 0.21227108
000030 9a ea 94 bd 69 0e 94 bd 75 c9 4c 3e 01 91 c1 3d
       -0.07271309 -0.07229311 0.19998725 0.094514854

layer1.1.weight f4 [16]
000000 23 a9 50 3f 06 52 81 3f 27 ea 53 3f ac 83 8d 3f
       0.8150808 1.0103157 0.82779163 1.1055808
000010 80 72 8c 3f 68 87 85 3f 39 8b 85 3f a6 bb 74 3f
       1.0972443 1.0431948 1.0433112 0.9559883
000020 18 3b 9d 3f 88 33 66 3f fe a9 91 3f 71 a6 8d 3f
       1.2283659 0.8992238 1.1380002 1.1066419
000030 c8 cc 28 3f 25 95 9f 3f 93 be 4b 3f df 13 2c 3f
       0.6593747 1.246739 0.7958767 0.6721782

layer1.1.bias f4 [16]
000000 0b 34 6e be 08 57 a4 bc b1 ad a8 be 22 30 2b be
       -0.2326204 -0.020061031 -0.32945016 -0.1671758
000010 b6 2d a0 be 61 36 33 be 96 4e 8e be 32 49 aa be
       -0.31284875 -0.17501213 -0.2779433 -0.3325897
000020 fe ad 22 be c4 59 2c be 63 1f fe bd 44 24 5b be
       -0.15886685 -0.16831118 -0.1240833 -0.21400553
000030 a9 c3 d5 be 36 da 35 be c2 4b 8d be a4 6f f8 be
       -0.4175084 -0.17759022 -0.2759686 -0.48522675

layer1.1.running_mean f4 [16]
000000 80 2f 77 be ab ef 05 be 77 da 45 3d 25 61 c7 bc
       -0.24139214 -0.13079707 0.048304047 -0.024338314
000010 a4 ed 0c be ca 2d b9 be 8a 29 c8 bd 3a 5d 66 be
       -0.13762528 -0.36167747 -0.09773548 -0.224965
000020 85 bd 95 be 6e 50 d7 bd bd 5a 24 3d aa 7f bd 3d
       -0.29246154 -0.105133876 0.040125597 0.092528656
000030 07 f9 4e 3a f7 fd 57 be 47 78 55 3e c8 95 4d 3e
       0.00078953843 -0.21092974 0.20846663 0.20076668

layer1.1.running_var f4 [16]
000000 1b 03 57 3d c0 5b 68 3c d3 82 02 3d b8 41 70 3d
       0.052493196 0.014182031 0.031863045 0.058656424
000010 94 14 6f 3c 33 d6 c0 3d b4 e3 8b 3d 1f 4e 5a 3c
       0.014592309 0.09415855 0.0683054 0.01332429
000020 8e 5e c2 3d 14 11 7d 3d 0a c9 ba 3d d9 2b c5 3d
       0.09490691 0.061783865 0.091203764 0.09627504
000030 e6 70 0d 3d ab 0c e4 3d a1 bf 93 3c f8 0e 0b 3d
       0.034531496 0.11135229 0.018035712 0.033949822

layer2.0.weight f4 [32, 16, 5, 5]
000000 d2 d8 0a bd 3e 48 c6 3c da ba ae bc e9 a0 ed b9
       -0.033898182 0.02420437 -0.021329332 -0.0004532405
000010 24 12 21 3d eb 95 45 3c 62 26 0b bd 99 af 38 3d
       0.03932394 0.012059669 -0.03397215 0.045089338
000020 80 fd d4 3d d0 49 24 3d f0 01 9a 3a 14 69 07 3d
       0.10399914 0.040109456 0.0011749845 0.033059195
000030 17 73 13 3c 38 61 1e 3d 62 20 8d bc 1c f8 0e bd
       0.0089996075 0.038666934 -0.017227355 -0.034904584
000040 3a 7f bc bd f1 51 c9 bb dd a7 a5 bc f9 eb ce 3c
       -0.09203954 -0.0061438014 -0.020221645 0.025259005
000050 0c d8 13 be e0 24 72 bd 51 5a 0c 3c 94 3f 80 bd
       -0.14437884 -0.059117198 0.008566455 -0.062621266
000060 8a 98 69 bd 7e 3c 8e bd a7 65 bd bd 4b b0 f6 bd
       -0.05703024 -0.06945132 -0.09247904 -0.12045344
000070 ca a3 45 3c f9 f3 86 3d 84 4d 92 3d 71 24 0c bc
       0.012062976 0.06589503 0.07143691 -0.00855361
000080 b5 b0 d7 bd 48 99 cf 3c 4a da d8 3d cb c9 1b 3e
       -0.10531751 0.025341645 0.1058851 0.15213697
000090 4e 2e d5 bc 1f b7 ee bd 06 de 9f bd 5e 33 c6 3d
       -0.026023056 -0.11656021 -0.078060195 0.09677766
0000a0 14 bc f6 bd 04 fd 04 be c0 a1 82 bd e6 45 3e bd
       -0.12047592 -0.12987143 -0.063785076 -0.04645338
0000b0 6b 24 8f bb 64 ec 27 3a 81 29 39 bd 98 30 46 be
       -0.004368355 0.00064057694 -0.045205597 -0.19354475
0000c0 4f 3c 02 3d ac 10 cf 3c 58 5c d2 bd 12 e1 0a bd
       0.031795796 0.025276504 -0.102715194 -0.03390605
0000d0 00 c3 04 be 63 f4 05 bd 3d 90 c3 38 c3 d2 22 bd
       -0.12965012 -0.03270377 9.325191e-05 -0.03975178
0000e0 ad 4c 3d 3d 85 0f e8 bd 22 23 a1 bd b0 1b c8 3c
       0.0462157 -0.11331085 -0.07868029 0.024427265
0000f0 b7 41 ec bc e7 6e 7d 3c 54 d0 78 bd b2 8d 19 be
       -0.028839929 0.015468336 -0.060745552 -0.14995459
000100 86 b8 ba 3c ee 4d a8 bd 36 ff a5 bd 24 62 eb bd
       0.022793066 -0.08217989 -0.08105318 -0.11493328
000110 a8 d5 8e bd 99 bc ea bb 7c 87 8c bb 2f a6 45 bd
       -0.069743454 -0.007163596 -0.004288612 -0.04825419
000120 55 d4 a7 bd 2a e1 12 bd 3c 7d dd bd c0 f8 77 bc
       -0.08194796 -0.035859264 -0.10814902 -0.01513499
000130 08 64 89 bd bb ed 85 bd 1c d1 a3 3c a6 9e 83 3d
       -0.067085326 -0.06539484 0.019997172 0.06426744
000140 05 52 0f be a4 2b 47 bc b3 35 ad bd c7 2e 43 3b
       -0.13996132 -0.012156401 -0.08457508 0.002978252
000150 d6 f9 29 bd 21 61 23 bc 8d 58 a4 bc 78 f4 4b bb
       -0.041498028 -0.009971888 -0.020061756 -0.0031121057
000160 eb 98 b8 3c 9c 1e 8c 3d 7f 87 66 3c 36 70 8c 3c
       0.022533854 0.06841776 0.014070391 0.01714335
000170 63 b5 34 3d 35 63 94 bb 2f 7f 31 3d 87 8f e2 bd
       0.044118296 -0.004528428 0.043334182 -0.11062532
000180 ed 20 98 bd 99 1e bd bd 6d 14 8f bd ea 68 34 bd
       -0.07428155 -0.09234352 -0.06986318 -0.044045366
000190 b1 2c a1 3b 48 d7 7e bd c9 9e 97 bc 54 75 f2 3b
       0.0049186577 -0.062217027 -0.018508332 0.0073992405
0001a0 9b f6 1d 3d 02 04 f1 3c bb 04 80 bd 7c 0f 6f bd
       0.03856526 0.029420856 -0.06250902 -0.058364376
0001b0 bc 9a 18 3e 99 bb f9 3d 95 d9 d1 bc 54 08 a3 bd
       0.14902776 0.121939845 -0.025616447 -0.07960573
0001c0 6d e8 1c 3d f3 01 54 bd 7a f8 c1 3d 01 29 be 37
       0.038307596 -0.05175967 0.09471221 2.2668859e-05
0001d0 95 9c de bc 9c 28 0b bd 83 82 2e bc 98 85 d7 3d
       -0.027174274 -0.033974275 -0.010651234 0.10523528
0001e0 63 fe 89 3c 98 7b 5e 3c e5 7a 34 3d 97 c8 7b 3c
       0.016844934 0.013579272 0.044062514 0.015367649
0001f0 07 b4 ae 3d 70 de 27 3e 29 2d 38 bc c0 9e fa 3c
       0.08530431 0.16393447 -0.011241236 0.030593276
000200 7b 43 7d bd d3 ac 05 be 61 24 ff 3d 5f 45 7c 3d
       -0.061831933 -0.13054208 0.124581106 0.061589595
000210 a9 3a aa 3c ce ff cd 3d 9d 3f 54 bd c1 51 08 3e
       0.020779924 0.100585565 -0.05181848 0.13312437
000220 fc ac 9d 3d cc e6 64 3d eb b5 2a 3d ed ae 8e bd
       0.0769901 0.055884168 0.041677397 -0.06966958
000230 83 5c bb 3d e6 6b 4a bc aa bb a7 3c 4a 13 91 bb
       0.091485046 -0.012354827 0.020475227 -0.0044273483
000240 40 ed 5a 3d 46 1d c8 bc ce 7f f2 3c d4 a9 26 bd
       0.053448915 -0.024428021 0.029601958 -0.040689304
000250 24 e9 85 3d 0a ef 2d 3d 51 13 e1 3d b5 f1 9c 3d
       0.06538609 0.042464294 0.109900124 0.076632895
000260 16 98 68 3d 7d 79 d0 bc 24 3f 66 bd cf 3f e5 3d
       0.056785665 -0.025448555 -0.05621256 0.11193811
000270 49 06 18 3e 81 ad 35 bc bb a9 28 3d e6 54 cb bd
       0.14846148 -0.01108873 0.041177493 -0.099283025
000280 38 11 61 3e 22 1c db 3d 30 29 77 bd 76 73 46 3d
       0.21979225 0.10698725 -0.060342014 0.048449956
000290 37 a5 97 bd 7e 2b 12 3e 37 7b 67 3c 6b cc c1 3d
       -0.07404559 0.14274403 0.014128498 0.09462818
0002a0 25 62 0c 3c 66 ab 4f bd 63 3f 34 3c a1 48 ba 3d
       0.008568321 -0.050700568 0.011001441 0.09095884
0002b0 70 c9 c6 3d 83 a3 ac bd 33 e2 1d bd 3a 30 42 bc
       0.0970639 -0.08429625 -0.0385458 -0.011852318
0002c0 a6 de 15 be 34 87 04 be d7 57 96 bc 2e 5f f1 bd
       -0.14635715 -0.12942201 -0.018352432 -0.11785732
0002d0 32 8a d1 bd de 7e c6 bd 50 6b 0e bc a5 02 2d bd
       -0.10231437 -0.09692167 -0.0086925775 -0.04223885
0002e0 9a 33 3d bd 84 81 10 bd e0 fb e9 bd ca 08 03 bd
       -0.04619179 -0.035279766 -0.114249945 -0.031990804
0002f0 3e 28 3e 3d 18 b9 e4 3d 95 1e f3 bc 9a d6 28 bd
       0.046425097 0.11168116 -0.029677669 -0.041220285
000300 dc ee 89 3b 9f 9b 6e bd 07 3b 72 3c 82 3e 4c be
       0.0042093825 -0.05825388 0.014784581 -0.1994572
000310 b9 cc 59 bc 13 d9 fe bc ae 2c 26 bd 3f bd 55 bd
       -0.013293439 -0.031109368 -0.040569954 -0.052182432
000320 72 a6 e7 3d 5d 70 c6 3d 47 f6 a0 bc fd 57 c7 bd
       0.11311044 0.096894 -0.019648684 -0.09733579
000330 ea 07 29 bd 81 4d d4 3d 0e 3b e2 3d ff e9 c0 3d
       -0.041267313 0.10366345 0.1104642 0.09419631
000340 a7 cf dd bc 5f 61 a3 39 ba 18 04 3d df 47 01 3d
       -0.027076555 0.0003116233 0.032250144 0.031562682
000350 92 e0 98 3d c2 a8 3a bc 90 9b 7e 3d b2 d5 a7 bd
       0.074647084 -0.011392774 0.062160075 -0.08195056
000360 80 ad 7c 3d 1b 4b 9e 3d 53 ec 1d bc 0f e2 dd 3d
       0.0616889 0.07729169 -0.009638864 0.10834133
000370 3d 1e d9 3c b8 53 06 3c 85 fd 59 bd 1c 96 38 3c
       0.026503677 0.008198671 -0.05322029 0.011266258
000380 bb 8f c4 3c 89 73 a2 3d e1 83 03 bd 6a 98 34 3d
       0.023994317 0.07932193 -0.03210819 0.044090666
000390 e0 d2 76 bc 89 cf d5 bd 9a c6 69 3d ef 03 69 3d
       -0.015064925 -0.10439975 0.057074167 0.056888517
0003a0 63 f1 bd 3d 18 e3 83 3c ce 2a 1c bd c0 62 54 bd
       0.092745565 0.016099498 -0.03812676 -0.051851988
0003b0 28 05 e3 bc e2 65 89 3d 14 0b 2b 3d b4 66 c0 3d
       -0.02771242 0.06708886 0.04175861 0.09394589
0003c0 bf 18 0c bd 26 f2 2d bd 1f d1 36 3d b2 5c c2 bb
       -0.034203287 -0.04246726 0.044633027 -0.0059314603
0003d0 e8 7f 8f 3d 1f a3 28 be 65 0c 9b bd c3 4a 86 3c
       0.07006818 -0.16468476 -0.075707234 0.016393071
0003e0 67 04 85 3d 6b ce e4 3d 55 94 72 bd 67 55 59 bd
       0.0649498 0.111721836 -0.05922349 -0.05305996
0003f0 64 c2 13 bc 34 2d 0c 3d 0b 53 a9 3d 00 0b 22 3c
       -0.009018514 0.034222797 0.08267792 0.009890318

layer2.0.bias f4 [32]
000000 e5 21 40 bd 6b 41 05 3c 8a f2 ba 3c 33 02 0b 3d
       -0.046907324 0.008133273 0.02282073 0.033937644
000010 87 18 ea 3b 7e fb 30 bd 7f c4 d6 bc 47 0a 46 bd
       0.007144037 -0.04320859 -0.026216744 -0.048349645
000020 da a3 de bc e6 79 86 3c 97 96 f7 ba ca 78 0f bd
       -0.02717774 0.016415548 -0.0018889484 -0.035027303
000030 c0 6a 24 3d ae 81 2f bd ca 0a 9e 3c 06 da 32 bd
       0.040140867 -0.04284828 0.019292254 -0.043664955
000040 4a 53 06 bb 8d 00 7b bd 9f 44 07 bd d7 ef 24 bd
       -0.0020496421 -0.061279822 -0.033024427 -0.04026779
000050 4f ef cb bc 76 69 0d bd 6d a1 84 bc 70 e2 54 3b
       -0.024894385 -0.034524404 -0.016190255 0.00324836
000060 c8 11 a0 3c 1d e9 00 bd 0d de 04 3d 4d 2c 68 bc
       0.019539729 -0.031472314 0.032438327 -0.014170718
000070 cf b2 65 bb 3e 39 d4 3c 9b 00 42 bd 7a 14 4e 3c
       -0.0035049205 0.025906201 -0.04736386 0.012578124

layer2.1.weight f4 [32]
000000 ae 1a 95 3f 1f e8 96 3f 08 f7 9b 3f 13 51 9f 3f
       1.1648767 1.1789588 1.2184763 1.2446617
000010 94 6e 94 3f 7d 14 8f 3f a0 10 93 3f 26 01 97 3f
       1.1596246 1.1178128 1.1489449 1.1797225
000020 2e 98 8b 3f 4e b8 96 3f c0 e6 92 3f dd 6c 99 3f
       1.0905817 1.1774995 1.1476669 1.1986347
000030 a7 1b 8e 3f cc e1 94 3f 86 b9 9c 3f 16 c1 8d 3f
       1.1102189 1.1631408 1.2244117 1.107455
000040 f0 9d 90 3f 9d b6 a3 3f e2 a0 99 3f 03 de 8e 3f
       1.1298199 1.2790104 1.2002223 1.1161503
000050 60 97 8f 3f fb 53 92 3f 91 1a 9b 3f 42 bf 8b 3f
       1.1218071 1.1431879 1.2117482 1.0917742
000060 1d 81 8c 3f 11 1f 93 3f f6 da 97 3f bb 99 a4 3f
       1.0976902 1.1493856 1.1863697 1.2859415
000070 a9 fc 91 3f cf 63 9b 3f 75 37 8f 3f 9a c9 91 3f
       1.1405231 1.2139834 1.1188799 1.1389649

layer2.1.bias f4 [32]
000000 2c 19 17 be e6 d0 52 be 66 84 9c be 7a 66 d5 be
       -0.14755696 -0.20587501 -0.30569762 -0.41679746
000010 9d 1c 6a be c3 ee a2 be d9 12 91 be b7 ed a2 be
       -0.22862478 -0.31822786 -0.28334692 -0.31821987
000020 76 27 38 be 81 c7 8f be a4 9f d0 be 3f ee 90 be
       -0.17983803 -0.28081897 -0.40746796 -0.28306767
000030 b8 83 60 be d6 e9 8e be 4c 84 ad be 2f c6 90 be
       -0.21925247 -0.27912778 -0.33889997 -0.28276202
000040 a2 9b 87 be d6 f4 7b be 57 1d 96 be 3f 4c 9d be
       -0.26485926 -0.24605116 -0.2931926 -0.30722234
000050 d5 d4 0b be 17 fe 40 be 2f 21 4a be 99 ad 79 be
       -0.13655408 -0.18846928 -0.19739221 -0.24382629
000060 68 5d 8d be 91 52 ca be 66 58 33 be d7 fc d7 be
       -0.27610326 -0.39516118 -0.1751419 -0.4218509
000070 0f 33 6a be 1e a3 dd bd 92 ae 66 be 32 21 53 be
       -0.2287104 -0.10822128 -0.22527531 -0.20618132

layer2.1.running_mean f4 [32]
000000 d5 b7 c2 be 84 b5 ea be d2 2b b3 be 70 fb 03 be
       -0.38030878 -0.4584161 -0.3499437 -0.12888885
000010 1c df 12 be 73 06 61 be f9 2f bf bd c2 ad 9f be
       -0.14342922 -0.21975116 -0.09335322 -0.31187254
000020 40 5d c5 bd e6 d5 a2 3e e3 6c d1 3e 04 b0 28 bf
       -0.09636927 0.31803817 0.40903386 -0.6589358
000030 62 93 74 3f 85 fe eb 3b d6 14 21 bf e8 f2 23 bf
       0.9553739 0.007201972 -0.6292242 -0.6404252
000040 e3 1d 3b bf a3 3b 0d bf ba f3 ad be 42 b6 10 bf
       -0.7309248 -0.55169123 -0.3397501 -0.56528103
000050 fe 8e c4 3c 23 4f 42 3f eb d0 b9 be 01 ed 8b 3e
       0.023993965 0.75902003 -0.36292204 0.27329257
000060 41 66 a3 3e 9c 10 33 bd 0a 93 9b 3e bd 8f 09 bf
       0.3191395 -0.04371701 0.3038562 -0.5373495
000070 1a 85 e7 3e d3 90 60 3f 0f d3 28 bf 5e 3e fd be
       0.45218736 0.87720984 -0.6594705 -0.49461645

layer2.1.running_var f4 [32]
000000 0e 6f c6 3f dc e0 a9 3f 10 93 f1 3f 5c 51 ba 3f
       1.5502641 1.3271747 1.8873005 1.4556079
000010 bb 48 b8 3f 44 b1 f2 3f 5a 44 b0 3f 73 70 cc 3f
       1.4397196 1.8960347 1.3770859 1.5971817
000020 fd 03 b3 3f ed 31 a2 3f 53 27 b3 3f 6e d2 86 3f
       1.3985592 1.2671486 1.3996376 1.0532968
000030 ae ec e8 3f dd 28 d7 3f 0b 7b 9c 3f 2d ce cb 3f
       1.8197229 1.6809345 1.222505 1.5922295
000040 05 ec 91 3f e1 d8 92 3f 07 de fd 3f bc 31 05 40
       1.1400152 1.1472436 1.9833382 2.0811605
000050 61 bd 03 40 92 78 b1 3f f8 d4 be 3f f1 03 d2 3f
       2.0584338 1.386492 1.4908743 1.6407453
000060 4c 12 a4 3f 7d a1 a1 3f 8d ea e8 3f 21 9a 8c 3f
       1.2818084 1.2627407 1.8196579 1.0984536
000070 6c f2 c2 3f a7 ec c9 3f cb 1e 89 3f d3 53 cd 3f
       1.5230231 1.5775346 1.0712522 1.6041206

fc.weight f4 [10, 1568]
000000 36 02 a7 3d 50 c4 85 bd bc ba 2a 3d dc 29 c4 3c
       0.081547186 -0.06531584 0.04168199 0.023945741
000010 51 c6 a4 3c 67 48 35 3d 7d f5 29 3e 70 f7 08 bc
       0.020114096 0.0442585 0.16597553 -0.008359775
000020 8e 57 7f bd 22 f1 bd bc e3 bd 2d bd 95 f6 c8 bc
       -0.062339358 -0.02318627 -0.04241742 -0.024531642
000030 e3 b1 9d 3d 55 e4 9a 3c 17 14 05 3d 93 0a 5f 3d
       0.07699945 0.018907705 0.032489862 0.054453444
000040 94 52 93 3b dc 0a 56 bd 1c 14 2c 3c 00 0c 8f 3d
       0.004495928 -0.05225645 0.010502841 0.06984711
000050 8e e9 59 bd 0e 2c a6 bb 6c a9 03 3d 7c 60 e1 3c
       -0.05320125 -0.0050711697 0.032143995 0.027511828
000060 b4 bb b3 3d 83 5a d4 3d 9f 4b bc 3d b2 8b 2c 3d
       0.08776036 0.10368826 0.09194111 0.04212541
000070 e9 bb 15 bc 09 0b ca 3c 1b 4e 76 3d 30 40 10 3e
       -0.00913904 0.024663465 0.06013308 0.14086986
000080 6c b6 eb 3d ff cf 6d bd 28 3e 6e 3d 0c e3 43 3d
       0.115094036 -0.05805969 0.058164746 0.04782395
000090 4a 3e 44 3d 8e be 60 3c ae 94 2f bd b2 a0 35 be
       0.047910966 0.013717307 -0.0428664 -0.17737082
0000a0 18 98 c8 bd e5 a8 b1 bb 21 62 40 3d 06 aa 6f 3d
       -0.097946346 -0.005421745 0.046968583 0.058511756
0000b0 21 c0 e9 3d 8c ce b2 bd 66 4c 3a be 31 93 4e bd
       0.11413599 -0.08730802 -0.18193206 -0.05043334
0000c0 4c a7 ae 3c d8 9b 08 3e fb 5b f1 bc ee a0 55 3d
       0.021320008 0.133407 -0.029462805 0.052155428
0000d0 41 18 f1 bc 32 38 3f bd 50 87 2d be 49 27 aa 3c
       -0.02943051 -0.04668445 -0.16946149 0.020770686
0000e0 d2 e8 86 bd 5f e2 82 3c 37 c5 c8 bc e0 fa 2c 3d
       -0.06587376 0.015977083 -0.024508102 0.04223144
0000f0 2b be 03 bd e3 03 af 3d 6e ea 41 3d e5 27 8e bd
       -0.03216378 0.08545663 0.04734271 -0.06941203
000100 f9 4e 09 bc c6 5b 0a bd 07 45 5c 3c 76 72 fb 3d
       -0.008380645 -0.03377893 0.013444192 0.12277691
000110 ed ec d1 3d e2 0e 99 3d f2 56 68 3c 25 f7 3c 3d
       0.10250268 0.07473542 0.014180886 0.046134133
000120 86 8e 4f 3c 51 5a aa 3d ba f3 df 3d 6e a6 ae 3d
       0.012668258 0.08318008 0.10935159 0.08527838
000130 8a c6 8a 3d ca d0 85 3c d4 06 84 3c 7c 46 31 3d
       0.067761496 0.01633491 0.016116537 0.04328011
000140 45 dd bc 3d 75 6d 95 3d fe 28 1d bd 54 15 b3 3c
       0.09221891 0.07296268 -0.03836917 0.021860756
000150 82 29 6a 3d 4e 15 39 3d 8b 9c 02 3e 60 9b 5f bd
       0.05716849 0.045186333 0.12755029 -0.054591537
000160 7b 63 76 be 30 64 da bd 84 07 53 bd 5e 9e 36 3e
       -0.24061386 -0.106636405 -0.05152084 0.1783385
000170 b0 54 26 3e 92 fd 05 bc 5d 86 40 be 50 92 7f be
       0.16243243 -0.008178132 -0.18801256 -0.24958158
000180 1a 85 b4 bd c8 fa 02 3d 22 c5 81 bd 92 e1 0a bd
       -0.088144496 0.031977445 -0.06336428 -0.033906527
000190 da b5 ff bc 6d 7e 0a bc cd 61 a8 bc df 53 92 bd
       -0.031214643 -0.008452994 -0.020554448 -0.071449034
0001a0 ba cc 62 bc be 8d a6 bb e5 a0 bd ba d9 b1 8e 3d
       -0.013842756 -0.005082815 -0.0014467506 0.069675155
0001b0 93 67 cb 3c 5c 75 14 bd 85 c0 63 3c 12 4b 3a 3d
       0.024829661 -0.036244735 0.013900881 0.04548175
0001c0 98 d1 20 3d 29 49 90 bd 0f 6c 9c bd 4c b5 0e be
       0.039262384 -0.07045204 -0.07637798 -0.13936347
0001d0 56 81 cc bd 9f 86 b0 bd 58 c4 b1 3c 5f 05 aa bc
       -0.09985606 -0.08619427 0.02170007 -0.020754514
0001e0 fe 1e f4 3c b7 2e bd bc e9 3e 85 3c 95 87 5a be
       0.029799934 -0.023093564 0.01626535 -0.21340783
0001f0 a0 8f 05 be c9 db 47 be cc 8a 22 bc 98 1b 34 3d
       -0.1304307 -0.19517435 -0.009920787 0.043971628
000200 9c 99 9c bc dc 40 e2 bc 54 50 0d 3c 85 d5 d7 bc
       -0.019116215 -0.027618818 0.008625109 -0.026346931
000210 0f e7 19 be 89 1f e7 bc 2b 34 06 bd 67 9e cf 3d
       -0.15029548 -0.02821328 -0.032764595 0.10137635
000220 37 91 8b 3d 15 37 af 3d a8 70 48 3d 4d a9 23 bd
       0.06814807 0.08555428 0.048935562 -0.03995638
000230 f9 1a d8 bc fe c2 20 bd c6 31 ec bd 8c b8 3f be
       -0.026380049 -0.03924846 -0.11532931 -0.18722743
000240 77 a5 88 3c 12 6f 84 3d 89 40 1e bc 5e 41 14 bc
       0.016680462 0.064664975 -0.009658941 -0.009048788
000250 ab 38 79 bd 0d 3b 87 3c 2b 44 74 3d d1 aa a9 3d
       -0.06084506 0.01650765 0.059635323 0.08284534
000260 36 f6 d2 bd de fe 60 3d 08 85 a9 3c f8 22 9f 3c
       -0.10300867 0.05493056 0.020693317 0.019425854
000270 9d d8 62 3c cd 5a 6b 3d 08 2b a3 bd 64 75 41 be
       0.01384559 0.05745964 -0.07967192 -0.18892437
000280 68 56 85 3c d1 b4 a3 3d a3 40 06 bd e7 88 0f be
       0.016276553 0.07993472 -0.032776486 -0.14017068
000290 80 9a 73 3d e5 3e a7 bb 6b ef 1d be 21 d6 f1 bd
       0.059473515 -0.005103933 -0.15423362 -0.1180842
0002a0 c0 e9 ab bd 7a aa e9 bc ea 57 ac bc 11 cf 9e 3c
       -0.08394194 -0.028523672 -0.021038014 0.019385846
0002b0 3d 16 dd bc 3c 01 cc 3d 64 08 5d 3b 54 64 f5 bd
       -0.026988143 0.09961173 0.0033726925 -0.11982027
0002c0 fb 41 01 be ec 5a db bd 64 b8 90 3c c2 40 a2 3d
       -0.12622826 -0.10710701 0.01766605 0.07922508
0002d0 0d c3 b5 3d 61 c5 16 3c 99 e8 53 bc 35 eb 6d bd
       0.088750936 0.009202332 -0.012933874 -0.05808564
0002e0 f3 9f 9a 3c 88 f6 ab 3d 31 0b 9f 3d a1 c2 12 3d
       0.018875098 0.083966315 0.077658065 0.035830144
0002f0 df 9d 8c 3d fd 31 24 3c d1 bb 49 3d 34 f3 a2 3d
       0.06866049 0.010021684 0.04925138 0.079565436
000300 95 e5 59 bd d8 b9 b9 bd 09 5d 30 bd 13 fa b2 bc
       -0.053197462 -0.0906865 -0.043057475 -0.02184776
000310 5d 92 96 bd 3d af 2d be 67 bf 8b bd 53 7f 73 bc
       -0.07352135 -0.1696138 -0.068236165 -0.014861899
000320 3c 2c a8 3d 1d 94 9e 3c 94 af bb ba 9d aa 89 bd
       0.08211562 0.019357735 -0.0014319294 -0.06721995
000330 4f f6 8c 3c 54 ec 45 bd d0 62 46 3c 1c f6 79 bd
       0.017207293 -0.048321083 0.01210852 -0.061025724
000340 1c ee 82 3d 36 2c 31 3d 8c 1b f1 3d 3e 25 41 3d
       0.06393072 0.043255053 0.11772832 0.047154658
000350 f8 56 7a 3d 5a 94 56 bc c8 21 47 bd 7f ec a6 bb
       0.061118096 -0.013096893 -0.0486162 -0.0050941105
000360 7b c5 72 3d 05 eb a9 3d 67 d8 9e 3d 63 14 cc 3d
       0.059270363 0.082967795 0.07756119 0.09964826
000370 47 d0 ba bc 71 42 45 bd e3 b1 3e bc 5c 89 8e 3b
       -0.022804393 -0.048159067 -0.011639091 0.0043498706
000380 14 bc 52 3d 8e c8 e5 bb 80 7b 85 3c 02 ea d1 3d
       0.051448897 -0.0070124334 0.016294241 0.102497116
000390 d9 55 8c 3c d1 8f 6e bc 30 8f 2e bc d6 fd f7 bd
       0.01713078 -0.014560656 -0.010654256 -0.12108962
0003a0 45 eb b8 bd 12 36 27 bd b5 4b 1e bc 13 97 87 bc
       -0.09029249 -0.04082305 -0.009661605 -0.01655153
0003b0 5a 10 34 3d bf ad 87 3c 8d 79 60 be 5a e5 fe be
       0.043960907 0.01656234 -0.21921368 -0.49784356
0003c0 20 56 6c be 36 16 a3 3c fe ac 99 3d 2e fb 86 bb
       -0.23079729 0.019908052 0.07503699 -0.0041192984
0003d0 be aa 6e bc 70 cd cb 3c 6b 6f 71 bd ae ae d5 3c
       -0.014567075 0.024878234 -0.058944147 0.02608427
0003e0 1e 07 23 3c 20 22 0c bc 13 fd bd bc 0a e8 28 3d
       0.009950427 -0.008553058 -0.023191964 0.041236915
0003f0 61 c8 89 bc d8 55 49 bd 44 17 de 3c 8d 21 fb 3a
       -0.01681918 -0.049154133 0.027110703 0.0019159779

fc.bias f4 [10]
000000 6c fa 38 3d 60 d7 6d 3d b8 9b c6 bc 8b d4 2f bc
       0.045160696 0.058066726 -0.024244174 -0.010731827
000010 c3 84 16 bd 62 b7 ec 3c 00 d4 dc bc 95 7a 89 3c
       -0.036747705 0.028896037 -0.026956558 0.016782084
000020 62 a9 d1 bc 34 23 7a 3c
       -0.025593463 0.015267182
